Model Summary
----------

------------------------------------------------------------------------
      Layer (type)         Output Shape         Param #     Tr. Param #
========================================================================
          Conv2d-1      [1, 64, 32, 32]           1,792           1,792
     BatchNorm2d-2      [1, 64, 16, 16]             128             128
          Conv2d-3     [1, 128, 16, 16]          73,856          73,856
     BatchNorm2d-4       [1, 128, 8, 8]             256             256
          Conv2d-5       [1, 256, 8, 8]         295,168         295,168
     BatchNorm2d-6       [1, 256, 4, 4]             512             512
     BatchNorm2d-7       [1, 256, 2, 2]             512             512
          Linear-8            [1, 4096]       4,198,400       4,198,400
         Dropout-9            [1, 4096]               0               0
         Linear-10             [1, 512]       2,097,664       2,097,664
        Dropout-11             [1, 512]               0               0
         Linear-12              [1, 10]           5,130           5,130
========================================================================
Total params: 6,673,418
Trainable params: 6,673,418
Non-trainable params: 0
------------------------------------------------------------------------

Test Metrics
------------

Classification Metrics
----------

              precision    recall  f1-score   support

    airplane       0.84      0.84      0.84      1000
…
